…
, and `right` (elements greater than the pivot).\n- **Recursive Sorting**: The function is called recursively on the `left` and `right` sub-arrays, and the results are concatenated with the `middle` array.\n\nThis version of Quick Sort uses list comprehensions for partitioning, which makes the code concise and easy to read. However, note that this approach creates new lists for each recursive call, which can lead to increased memory usage for large arrays. For larger datasets, an in-place version of Quick Sort would be more efficient.'
Qwen2ForCausalLM(
  (model): Qwen2Model(
    (embed_tokens): Embedding(152064, 3584)
    (layers): ModuleList(
      (0-27): 28 x Qwen2DecoderLayer(
        (self_attn): Qwen2SdpaAttention(
          (q_proj): Linear(in_features=3584, out_features=3584, bias=True)
          (k_proj): Linear(in_features=3584, out_features=512, bias=True)
          (v_proj): Linear(in_features=3584, out_features=512, bias=True)
          (o_proj): Linear(in_features=3584, out_features=3584, bias=False)
          (rotary_emb): Qwen2RotaryEmbedding()
        )
        (mlp): Qwen2MLP(
          (gate_proj): Linear(in_features=3584, out_features=18944, bias=False)
          (up_proj): Linear(in_features=3584, out_features=18944, bias=False)
          (down_proj): Linear(in_features=18944, out_features=3584, bias=False)
          (act_fn): SiLU()
        )
        (input_layernorm): Qwen2RMSNorm((3584,), eps=1e-06)
        (post_attention_layernorm): Qwen2RMSNorm((3584,), eps=1e-06)
      )
    )
    (norm): Qwen2RMSNorm((3584,), eps=1e-06)
    (rotary_emb): Qwen2RotaryEmbedding()
  )
  (lm_head): Linear(in_features=3584, out_features=152064, bias=False)
)

Qwen2VLForConditionalGeneration(
  (visual): Qwen2VisionTransformerPretrainedModel(
    (patch_embed): PatchEmbed(
      (proj): Conv3d(3, 1280, kernel_size=(2, 14, 14), stride=(2, 14, 14), bias=False)
    )
    (rotary_pos_emb): VisionRotaryEmbedding()
    (blocks): ModuleList(
      (0-31): 32 x Qwen2VLVisionBlock(
        (norm1): LayerNorm((1280,), eps=1e-06, elementwise_affine=True)
        (norm2): LayerNorm((1280,), eps=1e-06, elementwise_affine=True)
        (attn): VisionSdpaAttention(
          (qkv): Linear(in_features=1280, out_features=3840, bias=True)
          (proj): Linear(in_features=1280, out_features=1280, bias=True)
        )
        (mlp): VisionMlp(
          (fc1): Linear(in_features=1280, out_features=5120, bias=True)
          (act): QuickGELUActivation()
          (fc2): Linear(in_features=5120, out_features=1280, bias=True)
        )
      )
    )
    (merger): PatchMerger(
      (ln_q): LayerNorm((1280,), eps=1e-06, elementwise_affine=True)
      (mlp): Sequential(
        (0): Linear(in_features=5120, out_features=5120, bias=True)
        (1): GELU(approximate='none')
        (2): Linear(in_features=5120, out_features=3584, bias=True)
      )
    )
  )
  (model): Qwen2VLModel(
    (embed_tokens): Embedding(152064, 3584)
    (layers): ModuleList(
      (0-27): 28 x Qwen2VLDecoderLayer(
        (self_attn): Qwen2VLSdpaAttention(
          (q_proj): Linear(in_features=3584, out_features=3584, bias=True)
          (k_proj): Linear(in_features=3584, out_features=512, bias=True)
          (v_proj): Linear(in_features=3584, out_features=512, bias=True)
          (o_proj): Linear(in_features=3584, out_features=3584, bias=False)
          (rotary_emb): Qwen2VLRotaryEmbedding()
        )
        (mlp): Qwen2MLP(
          (gate_proj): Linear(in_features=3584, out_features=18944, bias=False)
          (up_proj): Linear(in_features=3584, out_features=18944, bias=False)
          (down_proj): Linear(in_features=18944, out_features=3584, bias=False)
          (act_fn): SiLU()
        )
        (input_layernorm): Qwen2RMSNorm((3584,), eps=1e-06)
        (post_attention_layernorm): Qwen2RMSNorm((3584,), eps=1e-06)
      )
    )
    (norm): Qwen2RMSNorm((3584,), eps=1e-06)
    (rotary_emb): Qwen2VLRotaryEmbedding()
  )
  (lm_head): Linear(in_features=3584, out_features=152064, bias=False)
)